lenet.pth (torch, 158235 bytes, 20 tensors)

layer1.0.weight f4 [16, 1, 5, 5]
0.13778546 -0.012526544 0.009887368 0.027201137 0.16807002 -0.18543017 -0.21382792 -0.18472707
-0.21329677 0.15968637 0.14136814 -0.1330224 -0.23635684 -0.11202806 -0.08594091 -0.08224826
-0.16337405 0.11373493 -0.051934134 -0.21755292 -0.015564505 -0.21245484 -0.035243947 -0.16085187
-0.2245335 0.17247525 -0.12652703 -0.045171786 0.02676152 0.110729456 0.0605094 0.051712256
0.09457678 0.0044203848 0.14032404 -0.1424355 -0.0017316006 0.17860892 -0.11188793 -0.023507588
0.0011963613 0.0017244768 0.113234 -0.12529178 0.14976306 -0.10949895 0.07570588 -0.028310662
-0.03446952 0.116370745 0.021811895 -0.21295278 0.05647011 -0.15286648 0.1465758 -0.10453408
0.13652068 -0.13341306 -0.17150399 -0.15660973 0.22166394 0.17090723 0.0008574203 -0.1670716
-0.12088357 0.14727777 0.119499974 0.28744227 0.09248278 -0.09123917 -0.29189748 -0.13155514
0.26667735 -0.06665001 0.008321345 -0.06511508 -0.06933828 -0.18983848 -0.028258167 0.13979858
0.0069326567 -0.13635717 0.025849776 0.1017034 0.027136805 -0.21960382 0.087669484 -0.16063178
0.08334812 0.095427364 -0.21306938 -0.09641298 -0.15602776 0.24286427 -0.103615694 -0.053837392
-0.16285868 0.06795246 0.08455272 0.20055167 -0.11962534 -0.04222422 -0.060792 0.20169869
-0.1308651 -0.0020065787 -0.29905593 0.11425421 -0.0542988 -0.09356551 0.062019173 0.07283172
-0.014788886 0.28409675 0.085720964 -0.18343788 0.1492755 0.22385086 0.19737345 -0.19248876
0.035289206 0.01962765 -0.01550274 -0.09203023 -0.33124465 0.13578053 -0.18092012 0.043742467
-0.004827387 0.062360246 0.045809854 0.19252864 -0.024410743 -0.07991251 -0.0385231 0.19866315
0.22152497 0.0042214813 0.059821285 -0.21685567 -0.061215352 -0.19067961 0.14821668 -0.15597826
-0.023848617 0.12505089 0.048876226 0.03927363 -0.16717602 0.1034924 0.004990896 0.022274066
0.05400624 -0.1705405 -0.15189955 -0.19420119 -0.11654474 0.11094566 -0.006809306 -0.13514042
-0.22276007 -0.04298405 -0.012353285 -0.17177927 0.0983532 -0.09887519 0.0852473 -0.23278391
-0.21233417 -0.1911248 -0.10604955 -0.018697247 -0.2317092 0.019709848 0.1803036 -0.16066961
-0.115208566 -0.021528523 -0.04645694 -0.09851607 -0.16937178 -0.21595173 -0.022419529 -0.0582703
-0.05548051 0.13518639 -0.06821233 -0.009743951 -0.1445628 -0.09465695 0.11889785 0.07596505
0.20761414 -0.08302949 0.13909447 0.0032605482 0.1876897 -0.05685643 0.264906 0.22691111
-0.11047601 0.07511673 0.011920972 0.031152789 -0.1291025 0.22143047 -0.017521683 0.05207334
0.00091336155 -0.24963278 0.20363536 0.20647414 -0.03317072 -0.14306985 -0.14051694 0.067952916
0.046374947 0.1473684 0.122304425 0.011673605 0.13983023 -0.12020317 0.18593943 0.039456055
-0.115987696 -0.023786223 0.10007119 0.14096506 -0.19130746 -0.014953909 0.16911857 0.116264716
-0.22847427 -0.007013156 -0.114991724 -0.031204887 -0.26634106 -0.2363988 -0.16254938 -0.1573866
-0.21371008 -0.15328714 -0.06520467 0.0788974 0.068352945 -0.0375072 0.15090239 -0.0021713371
0.22547163 0.056391377 0.19982357 0.14361274 0.2332261 0.1200771 -0.061460607 0.09394905
00000000: a217 0d3e 223c 4dbc a1fe 213c ebd4 de3c
00000010: 8c1a 2c3e 68e1 3dbe b5f5 5abe 1829 3dbe
00000020: 786a 5abe d384 233e cfc2 103e 0637 08be
00000030: 8707 72be f86e e5bd ca01 b0bd c771 a8bd
00000040: 874b 27be dced e83d e3b8 54bd 31c6 5ebe
00000050: 4402 7fbc c38d 59be f55b 10bd 5ab6 24be
00000060: 1cec 65be 5a9d 303e 4d90 01be 0d06 39bd
00000070: fa3a db3c 20c6 e23d b4d8 773d 3bd0 533d
00000080: 79b1 c13d e0d8 903b 1bb1 0f3e 9dda 11be
00000090: e0f6 e2ba 42e5 363e 8025 e5bd fc92 c0bc
000000a0: 39cf 9c3a d707 e23a 3ae7 e73d 7d4c 00be
000000b0: 7d5b 193e fc40 e0bd af0b 9b3d c3eb e7bc
000000c0: e92f 0dbd c953 ee3d dcae b23c 4b10 5abe
000000d0: 344d 673d 0889 1cbe f717 163e f715 d6bd
000000e0: 14cc 0b3e 6f9d 08be be9e 2fbe 4d5e 20be
000000f0: dffb 623e 4e02 2f3e 81c4 603a d114 2bbe
00000100: ce91 f7bd fccf 163e 67bc f43d a22b 933e
00000110: 9d67 bd3d 9adb babd 9673 95be 64b6 06be
00000120: ef89 883e cd7f 88bd 4056 083c 0e5b 85bd
00000130: 3a01 8ebd 0565 42be ac7d e7bc 5c27 0f3e
00000140: 572b e33b 37a1 0bbe e9c2 d33c df49 d03d
00000150: 014e de3c d3df 60be 0f8c b33d a87c 24be
00000160: 6bb2 aa3d 6c6f c33d dc2e 5abe 2b74 c5bd
00000170: bec5 1fbe 69b1 783e 7734 d4bd 9984 5cbd
00000180: 6dc4 26be a92a 8b3d fa29 ad3d 6b5d 4d3e
00000190: 21fe f4bd 4ef3 2cbd 0801 79bd 1a8a 4e3e
000001a0: 8001 06be ce80 03bb dc1d 99be 1cfe e93d
000001b0: 6b68 5ebd 469f bfbd d107 7e3d cc28 953d
000001c0: 154d 72bc 2175 913e 798e af3d 24d7 3bbe
000001d0: addb 183e 2939 653e 441c 4a3e c61b 45be
000001e0: 6a8b 103d 2aca a03c 34ff 7dbc 587a bcbd
000001f0: e698 a9be 0d0a 0b3e 2043 39be 4d2b 333d
00000200: 0f2f 9ebb 756d 7f3d 1da3 3b3d 3a26 453e
00000210: 0af9 c7bc 2ca9 a3bd 66ca 1dbd 5a6e 4b3e
00000220: 71d7 623e 5a54 8a3b 2a07 753d 6a0f 5ebe
00000230: f3bc 7abd 8441 43be 1dc6 173e c4b8 1fbe
00000240: 2d5e c3bc 570d 003e 7032 483d 63dd 203d
00000250: 3130 2bbe d3f3 d33d ac8a a33b 1a78 b63c
00000260: a635 5d3d 2ba2 2ebe 8e8b 1bbe addc 46be
00000270: 02af eebd 7a37 e33d 9920 dfbb 4062 0abe
00000280: 371b 64be 0b10 30bd 6f65 4abc e8e6 2fbe
00000290: 676d c93d 137f cabd 2396 ae3d e85e 6ebe
000002a0: 216e 59be 38b6 43be 8230 d9bd f82a 99bc
000002b0: 2d45 6dbe 8c76 a13c 82a1 383e 9386 24be
000002c0: 78f2 ebbd 965c b0bc a249 3ebd cbc2 c9bd
000002d0: cc6f 2dbe 7322 5dbe 29a9 b7bc d7ac 6ebd
000002e0: 883f 63bd 4d6e 0a3e e8b2 8bbd 18a5 1fbc
000002f0: 4508 14be 81db c1bd b780 f33d 9093 9b3d
00000300: cd98 543e 5e0b aabd c86e 0e3e ecae 553b
00000310: bb31 403e 4ae2 68bd c2a1 873e 635b 683e
00000320: 3f41 e2bd cdd6 993d 2e50 433c 2234 ff3c
00000330: 7233 04be abbe 623e a289 8fbc db4a 553d
00000340: a86e 6f3a bc9f 7fbe ca85 503e f56d 533e
00000350: 05de 07bd e780 12be ace3 0fbe e62a 8b3d
00000360: a8f3 3d3d bee7 163e be7a fa3d a642 3f3c
00000370: a82f 0f3e 142d f6bd e866 3e3e ac9c 213d
00000380: f58a edbd 53db c2bc 20f2 cc3d 2559 103e
00000390: 1ae6 43be 3e01 75bc 6b2d 2d3e 321c ee3d
000003a0: 29f5 69be 9ece e5bb c880 ebbd 64a1 ffbc
000003b0: db5d 88be 8712 72be 5873 26be f429 21be
000003c0: d1d6 5abe 4ef7 1cbe 078a 85bd f694 a13d
000003d0: a1fc 8b3d 26a1 19bd 2886 1a3e fe4c 0ebb
000003e0: 09e2 663e a5fa 663d 8d9e 4c3e 380f 133e
000003f0: d3d2 6e3e fcea f53d 1ebe 7bbd 5c68 c03d

layer1.0.bias f4 [16]
0.17645572 0.09850378 -0.14114648 -0.07192577 0.1764383 0.1892459 -0.02480079 0.18264033
-0.19812916 0.09345008 -0.20881738 0.058081236 0.10698263 -0.11592143 -0.18408744 0.08890737
00000000: cfb0 343e 5abc c93d b488 10be d14d 93bd
00000010: 3eac 343e adc9 413e 072b cbbc 1106 3b3e
00000020: 5fe2 4abe c162 bf3d 39d4 55be 97e6 6d3d
00000030: b619 db3d 3768 edbd 6b81 3cbe 1115 b63d

layer1.1.weight f4 [16]
1.0570346 0.98819095 1.0572386 1.040853 1.0638713 1.0005337 1.0382681 1.0461386
1.0311815 1.0636288 1.038868 1.0537822 1.076445 1.0490552 1.0502789 1.0219245
00000000: e94c 873f 15fa 7c3f 9853 873f ac3a 853f
00000010: ef2c 883f 7d11 803f f8e5 843f dfe7 853f
00000020: c1fd 833f fd24 883f a0f9 843f 56e2 863f
00000030: f3c8 893f 7147 863f 8a6f 863f 6cce 823f

layer1.1.bias f4 [16]
0.0010920904 0.010017246 -0.004011102 -0.012495874 0.0058171414 0.019421943 0.0055669504 -0.0021578576
-0.040612143 -0.011536537 -0.011270584 -0.0056557856 -0.017015917 -0.008121689 -0.01366917 -0.007217406
00000000: 7924 8f3a 601f 243c 906f 83bb 7fbb 4cbc
00000010: b89d be3b c41a 9f3c f76a b63b d86a 0dbb
00000020: eb58 26bd be03 3dbc 41a8 38bc 2b54 b9bb
00000030: f764 8bbc d510 05bc a8f4 5fbc fd7f ecbb

layer1.1.running_mean f4 [16]
-0.0022366852 0.19582327 -0.15167661 -0.06301176 0.18166201 0.19055098 -0.1810321 0.18120773
0.08148733 0.046811648 -0.023541003 0.25268206 0.11181077 -0.1760675 -0.29723108 0.10939015
00000000: 5a95 12bb e585 483e 1d51 1bbe 4f0c 81bd
00000010: 9b05 3a3e cc1f 433e 7b60 39be 858e 393e
00000020: d4e2 a63d 92bd 3f3d 10d9 c0bc 8b5f 813e
00000030: 0cfd e43d 0a4b 34be ac2e 98be f107 e03d

layer1.1.running_var f4 [16]
0.10217102 0.019318637 0.02245149 0.014907993 0.012981331 0.03174821 0.05171546 0.02217713
0.045589488 0.02903956 0.06356833 0.06675655 0.032816008 0.01982033 0.083877966 0.007683441
00000000: 0a3f d13d 1e42 9e3c 30ec b73c a840 743c
00000010: a6af 543c 690a 023d 97d3 533d d0ac b53c
00000020: 0bbc 3a3d 5fe4 ed3c 1d30 823d a8b7 883d
00000030: 146a 063d 3f5e a23c 36c8 ab3d 60c5 fb3b

layer2.0.weight f4 [32, 16, 5, 5]
-0.01631173 0.031419028 0.02204778 -0.015245513 0.044384155 -0.036642406 0.040898807 0.038040183
-0.00772267 0.0046644844 -0.056328442 0.019346816 -0.02424793 -0.042661082 -0.0017603533 -0.046868235
0.0356679 -0.031076588 -0.01724453 -0.0027950278 -0.010338417 0.022004586 0.0012916384 0.029619668
0.028483069 -0.0031796836 -0.023862962 0.025256427 0.00980426 -0.020569379 -0.014877851 0.011388234
-0.02763107 -0.02722378 -0.0057580294 -0.007514587 -0.024790749 -0.01776716 0.0010249885 0.005637466
0.031294137 -0.03073149 -0.045752667 0.006715389 -0.04243151 -0.020792132 -0.01707354 0.031736836
-0.060366277 -0.08210127 0.0055025495 0.014412433 0.020167086 0.016505638 -0.03914932 -0.013600452
0.036628187 -0.03443559 -0.03188506 -0.017355604 -0.0059315134 0.0107895695 0.0083408505 -0.021594396
-0.017269919 0.037058752 -0.005002619 0.09305224 0.07283371 -0.032602493 0.0134338895 -0.041657366
0.057493847 0.021997256 0.05969871 0.015166948 -0.0102812005 0.009858809 0.025645047 0.006277762
-0.027213192 0.034786485 -0.03799668 -0.04355025 0.0009834507 -0.01394244 0.00662119 -0.05853724
0.025497323 -0.029650005 -0.01212366 0.013097359 0.01158067 -0.019096363 0.034354452 -0.01903324
-0.042689513 0.0018294556 0.019103894 0.024492823 0.006190843 0.028686782 0.02739511 -0.012541829
-0.014415358 0.039532334 0.009595197 0.02462618 -0.044674616 -0.069097824 0.007233181 -0.016553462
0.014912823 -0.04317796 -0.054158527 -0.03365729 -0.018358167 0.06293576 0.06990079 -0.031194333
0.03993859 -0.0012272887 0.01594935 0.053356916 0.012964315 0.0001832821 -0.006336101 -0.024324592
-0.03325391 -0.030060787 0.011837854 0.034107946 -0.05421156 -0.023823312 -0.026723437 -0.034500692
-0.016159996 0.003344601 0.00834378 0.0033260132 0.02882343 0.031994846 -0.03178449 -0.0477796
-0.036916815 -0.00024782232 0.011901658 0.018510493 0.046941582 0.025380068 0.024690175 -0.038561277
0.010984794 -0.022529788 -0.0075230654 -0.026198152 0.016456263 -0.03959396 -0.023170756 -0.016194336
-0.02448769 -0.016900498 0.0014226184 -0.032697268 0.0004429028 -0.019605858 -0.038555928 0.0059342124
-0.028960912 -0.038625635 0.029849352 -0.04304824 0.041263398 -0.029178236 -0.018814418 -0.020060387
0.021218376 -0.0272676 -0.011774406 0.017341828 0.040732604 -0.038830962 -0.023694245 0.027115462
-0.035595864 0.06413541 0.040105104 0.037288006 -0.06658944 -0.025512826 0.031045837 0.039019167
-0.00849918 -0.008350968 -0.005390398 0.027810918 0.028566191 -0.01000528 0.008940724 -0.05515789
-0.034021128 -0.028059214 0.028970726 -0.028365029 0.049219668 0.016483532 -0.04868772 -0.0023980942
0.027494507 -0.021383014 0.026417969 -0.027381044 0.017967837 -0.020892022 0.020710327 0.004408472
0.017474849 0.015532134 0.03672875 0.037129678 0.0057877917 0.020326251 -0.0032896532 -0.02903744
-0.020441812 -0.010953958 0.027260857 -0.018689424 -0.03584331 -0.019091025 0.036080442 -0.03168963
0.0538669 0.00755229 0.029484382 0.011450183 -0.0011091823 0.029005958 -0.025995854 0.019092701
-0.0463907 0.00072779687 -0.01117407 0.02450637 0.013272185 -0.033782538 0.029296584 -0.036286466
-0.03217644 -0.008317193 0.03808334 0.014067603 -0.008482221 -0.033720158 0.004154542 -0.015009354
00000000: 2da0 85bc 3db1 003d 8c9d b43c 51c8 79bc
00000010: 29cc 353d 5916 16bd 8285 273d 06d0 1b3d
00000020: 740e fdbb 88d8 983b a7b8 66bd 377d 9e3c
00000030: 98a3 c6bc 63bd 2ebd a8bb e6ba e8f8 3fbd
00000040: 8118 123d 5494 febc 6744 8dbc c92c 37bb
00000050: 7762 29bc f642 b43c 314c a93a f2a4 f23c
00000060: 5355 e93c 3d62 50bb 427c c3bc 91e6 ce3c
00000070: 0ca2 203c 1d81 a8bc 3bc2 73bc b795 3a3c
00000080: 8e5a e2bc 6804 dfbc daad bcbb ed3c f6bb
00000090: f815 cbbc 6f8c 91bc e858 863a 7eba b83b
000000a0: 482e 003d 9bc0 fbbc 2667 3bbd c40c dc3b
000000b0: aacc 2dbd 4354 aabc cfdd 8bbc 7cfe 013d
000000c0: a142 77bd b624 a8bd bb4e b43b 2022 6c3c
000000d0: 7235 a53c d536 873c 0a5b 20bd 6ed4 5ebc
000000e0: 7007 163d 550c 0dbd e999 02bd 572d 8ebc
000000f0: 245d c2bb bcc6 303c 10a8 083c bbe6 b0bc
00000100: a579 8dbc ebca 173d 02ed a3bb 2c92 be3d
00000110: d729 953d 318a 05bd d119 5c3c eaa0 2abd
00000120: ab7e 6b3d 9733 b43c a286 743d ca7e 783c
00000130: 7b72 28bc d886 213c 9015 d23c afb5 cd3b
00000140: 33ee debc 467c 0e3d 68a2 1bbd bf61 32bd
00000150: 21e7 803a d56e 64bc 91f6 d83b bfc4 6fbd
00000160: c3df d03c 91e4 f2bc 51a2 46bc 4e96 563c
00000170: dabc 3d3c fa6f 9cbc 41b7 0c3d 99eb 9bbc
00000180: 33db 2ebd 58ca ef3a c57f 9c3c 2ca5 c83c
00000190: 8edc ca3b 8b00 eb3c b66b e03c 3e7c 4dbc
000001a0: 652e 6cbc a8ec 213d 2c35 1d3c d8bc c93c
000001b0: bbfc 36bd 2983 8dbd 5204 ed3b 209b 87bc
000001c0: ea54 743c 5fdb 30bd 55d5 5dbd 3adc 09bd
000001d0: de63 96bc 77e4 803d 2528 8f3d 428b ffbc
000001e0: a696 233d fadc a0ba 36a8 823c c88c 5a3d
000001f0: 4768 543c 6a2f 4039 119f cfbb 5e44 c7bc
00000200: 4035 08bd 0a42 f6bc 8ff3 413c c6b4 0b3d
00000210: f10c 5ebd 1b29 c3bc 1ceb dabc 9950 0dbd
00000220: f861 84bc 1831 5b3b 5ab4 083c 3ef9 593b
00000230: 1d1f ec3c 070d 033d 7430 02bd 8bb4 43bd
00000240: 1636 17bd 26ee 81b9 2cff 423c 51a3 973c
00000250: d145 403d dce9 cf3c 0d43 ca3c 6ef2 1dbd
00000260: 91f9 333c 6490 b8bc 0c84 f6bb 829d d6bc
00000270: 49cf 863c 472d 22bd 99d0 bdbc fca9 84bc
00000280: 689a c8bc ea72 8abc 2777 ba3a 92ed 05bd
00000290: 6835 e839 779c a0bc d2ec 1dbd c873 c23b
000002a0: 6f3f edbc ea35 1ebd a186 f43c 5a53 30bd
000002b0: cf03 293d 3207 efbc b220 9abc ae55 a4bc
000002c0: 29d2 ad3c 4d60 dfbc 70e9 40bc 7310 8e3c
000002d0: 3bd7 263d 370d 1fbd 6f1a c2bc 3f21 de3c
000002e0: f8cc 11bd 6d59 833d 4045 243d 4fbb 183d
000002f0: 0b60 88bd 4600 d1bc d753 fe3c 90d2 1f3d
00000300: 2540 0bbc 80d2 08bc f0a1 b0bb b9d3 e33c
00000310: a503 ea3c 30ed 23bc 1d7c 123c 3ded 61bd
00000320: bd59 0bbd 70dc e5bc 0454 ed3c c75d e8bc
00000330: 909a 493d 7908 873c c66c 47bd 5829 1dbb
00000340: 293c e13c 6e2b afbc 7f6a d83c 364e e0bc
00000350: 4931 933c bf25 abbc b4a8 a93c f274 903b
00000360: 6a27 8f3c 7e7a 7e3c e370 163d 4a15 183d
00000370: 84a7 bd3b 3d83 a63c 3997 57bb eddf edbc
00000380: 9675 a7bc 3b78 33bc 2952 df3c 901a 99bc
00000390: 6fd0 12bd c864 9cbc 16c9 133d fccc 01bd
000003a0: 8aa3 5c3d 3379 f73b 3b89 f13c 8c99 3b3c
000003b0: fb61 91ba e79d ed3c 42f5 d4bc 4c68 9c3c
000003c0: 2d04 3ebd 9fc9 3e3a 7213 37bc 95c1 c83c
000003d0: 9473 593c 8f5f 0abd 64ff ef3c 1ea1 14bd
000003e0: 71cb 03bd d644 08bc 47fd 1b3d ce7b 663c
000003f0: 03f9 0abc 261e 0abd d322 883b cbe9 75bc

layer2.0.bias f4 [32]
0.013373336 0.0022277748 0.04985418 -0.054417588 0.07523378 0.042956293 -0.03168452 0.01005951
-0.0006973892 -0.02653553 0.0036300365 -0.016149474 0.038960155 0.055087484 0.06992612 -0.05473406
-0.022462219 -0.0056740027 -0.021088 -0.01550322 -0.03724365 -0.028386066 -0.033926103 0.032508556
0.055799164 -0.018537706 -0.053107254 -0.044387896 -0.00196697 -0.027100421 0.021222709 -0.06348665
00000000: d61b 5b3c dcff 113b e633 4c3d fae4 5ebd
00000010: 2b14 9a3d f0f2 2f3d a1c7 01bd a5d0 243c
00000020: ffd0 36ba 0a61 d9bc e8e5 6d3b e74b 84bc
00000030: af94 1f3d 6aa3 613d 6d35 8f3d d230 60bd
00000040: b002 b8bc fcec b9bb bec0 acbc 3801 7ebc
00000050: cc8c 18bd e589 e8bc 19f6 0abd b127 053d
00000060: aa8d 643d 63dc 97bc fe86 59bd 15d0 35bd
00000070: 48e8 00bb b401 debc 3fdb ad3c 4a05 82bd

layer2.1.weight f4 [32]
1.0071307 1.0246109 1.0376137 1.0135175 1.0509129 1.0088013 1.0372497 1.0237951
1.0228031 1.0211191 1.0243882 1.0110458 1.0080769 1.0264641 1.0278126 1.0389563
1.0131382 1.0227301 1.0206333 1.0324485 1.0584582 1.0225437 1.0146415 1.0674843
1.0525303 1.0144542 1.0143838 1.0233916 1.0481292 1.0161375 1.0526229 1.0067029
00000000: a9e9 803f 7326 833f 87d0 843f f1ba 813f
00000010: 5084 863f 6720 813f 99c4 843f b80b 833f
00000020: 36eb 823f 08b4 823f 271f 833f f369 813f
00000030: aa08 813f 2d63 833f 5d8f 833f 85fc 843f
00000040: 83ae 813f d2e8 823f 1da4 823f 4627 843f
00000050: 8f7b 873f b6e2 823f c6df 813f 53a3 883f
00000060: 50b9 863f a3d9 813f 54d7 813f 7ffe 823f
00000070: 1929 863f cb10 823f 59bc 863f a4db 803f

layer2.1.bias f4 [32]
-0.0016893703 -0.007973759 0.007938432 -0.004786421 0.018167749 -0.005819899 -0.008582139 0.0013896778
-0.0010735182 0.0027240966 -0.009600839 0.0017090372 -0.001385859 0.0033533922 0.009439529 -0.012673518
0.0050318474 0.013026451 -0.004769514 -0.019840961 -0.011185489 -0.011768544 0.0008834917 0.012318447
0.01843653 0.00023528941 -0.00817663 -0.017075457 -0.013755942 0.005298404 -0.010598289 -0.010953105
00000000: dc6d ddba 5fa4 02bc 3210 023c 69d7 9cbb
00000010: 88d4 943c dab4 bebb 1a9c 0cbc d925 b63a
00000020: 4bb5 8cba c286 323b d64c 1dbc c601 e03a
00000030: b6a5 b5ba 96c4 5b3b 41a8 1a3c 96a4 4fbc
00000040: 32e2 a43b e56c 553c 9549 9cbb 8389 a2bc
00000050: 5743 37bc dad0 40bc 209a 673a 50d3 493c
00000060: 3508 973c 05b8 7639 46f7 05bc d4e1 8bbc
00000070: 9a60 61bc 3c9e ad3b 72a4 2dbc a774 33bc

layer2.1.running_mean f4 [32]
-0.13224588 0.51475996 -0.3058136 0.11668439 -0.35543865 0.25728062 0.21268167 -0.34255254
0.26271668 -0.34762803 0.32439515 0.16403727 -0.18903716 0.018438164 -0.10541728 0.43828633
-0.7327922 -0.71513855 -0.19282137 0.7440188 0.041680884 0.1334218 -0.1020972 -0.22601485
-0.11279574 0.20108488 -0.08858068 0.2836986 0.3946759 0.061138496 -0.3404103 0.3177359
00000000: 776b 07be 4fc7 033f 9a93 9cbe 3af8 ee3d
00000010: 0efc b5be 49ba 833e 39c9 593e 0c63 afbe
00000020: cd82 863e 4dfc b1be 1f17 a63e 63f9 273e
00000030: f592 41be a20b 973c 04e5 d7bd 1167 e03e
00000040: 4598 3bbf 5213 37bf f772 45be 0478 3e3f
00000050: 93b9 2a3d b99f 083e 5618 d1bd 7070 67be
00000060: 7401 e7bd 32e9 4d3e ca69 b5bd f140 913e
00000070: f612 ca3e 5c6c 7a3d 424a aebe 48ae a23e

layer2.1.running_var f4 [32]
0.13874237 0.18760067 0.089547135 0.20022485 0.10173324 0.19329844 0.16860339 0.27828637
0.13085927 0.17505349 0.16734733 0.111208685 0.31723043 0.123707324 0.07626972 0.3309328
0.37974882 0.1608472 0.18649882 0.29399356 0.17485382 0.13340925 0.3015576 0.076489426
0.10451773 0.25098595 0.16520436 0.19540213 0.13953036 0.17957692 0.26157722 0.1736926
00000000: 7b12 0e3e 641a 403e 7d64 b73d be07 4d3e
00000010: 8459 d03d 07f0 453e 5ea6 2c3e 8d7b 8e3e
00000020: f9ff 053e 3941 333e 195d 2b3e 61c1 e33d
00000030: 076c a23e 445a fd3d 4d33 9c3d 0670 a93e
00000040: 706e c23e 21b5 243e 8cf9 3e3e 5386 963e
00000050: e10c 333e 6f9c 083e c265 9a3e 7da6 9c3d
00000060: 640d d63d 3b81 803e 552b 293e 7f17 483e
00000070: 0ce1 0e3e 03e3 373e 73ed 853e 79dc 313e

layer3.0.weight f4 [64, 32, 3, 3]
0.029242115 0.06100725 -0.007128543 0.014814524 -0.020390982 -0.017374508 0.06428388 0.007885999
-0.006356714 0.019868286 -0.01881064 -0.011243195 0.010314897 -0.042224698 -0.0524412 0.037831657
0.037552375 -0.026964322 -0.064952776 -0.016195059 -0.025447357 -0.059276875 -0.02111656 0.037115216
-0.018598776 -0.02980259 -0.022831254 0.02315589 0.00987745 -0.023676267 -0.0038224428 0.03144025
-0.03719196 0.008660741 0.044183984 -0.0004183276 0.050466813 0.052805815 -0.0042039827 -0.015830288
0.029836038 -0.000878827 0.038652334 -0.013965454 -0.0026182653 0.041983288 0.04482492 0.030161945
-0.031968996 0.01345897 0.014175091 0.01679641 -0.04542042 0.053559374 0.0062893108 0.06217757
0.046719257 0.032200944 0.006276083 -0.0019405204 -0.009729795 0.029210573 0.060829956 -0.056348357
0.051469218 0.032322783 0.037247065 0.00046988795 -0.050692778 0.036822576 -0.0409005 0.007807874
-0.038363095 0.03931607 0.039667614 0.05200086 0.003113117 -0.061074387 -0.040803112 -0.008396236
-0.043819632 0.0071136835 -0.01090219 -0.0015204907 0.02099891 -0.025667977 -0.029168503 0.00792813
-0.044740345 -0.04700175 0.04438502 0.030983197 -0.013766959 0.06353318 -0.032471906 -0.019792901
-0.006553274 0.036381487 0.037718628 -0.033217404 0.005683033 -0.0085293 -0.019829707 0.017768255
-0.024893098 -0.03602888 -0.06858196 0.04691146 -0.049744323 -0.0053674285 -0.02917655 -0.025269728
0.03186597 -0.03781115 -0.022858346 -0.009011536 -0.033033945 -0.057686787 -0.049500868 -0.048370577
-0.001795057 -0.07900598 -0.051939696 0.009006086 -0.023338055 0.047302984 0.022329189 -0.05474175
-0.041573305 -0.032978594 -0.0288925 -0.039536096 0.0029693237 0.021513974 -0.0009481633 -0.029074056
0.025337018 0.047453586 0.054279607 -0.017901659 -0.013436984 -0.036378384 -0.037375003 0.000613837
0.055593953 0.031145256 -0.04783531 0.0015567337 -0.010346277 -0.019475294 -0.0657034 -0.030732192
-0.0059187533 -0.012084022 0.05662172 -0.0040269084 -0.040789086 0.009922492 -0.024082124 -0.027592193
-0.04519304 -0.027741736 -0.029204637 -0.021615857 0.044479173 -0.03779704 -0.0439851 -0.056014586
-0.043618347 -0.032349627 -0.050731536 0.035192966 0.041899577 -0.054732893 0.06500406 0.039634224
0.021327399 -0.05564158 -0.029496536 0.047151186 -0.029969305 -0.014468916 -0.025845675 0.05572455
-0.01691509 -0.023631886 0.054385945 0.029292976 0.050871223 0.016456746 0.0019808086 -0.047408856
0.04466713 0.029048434 0.002132778 -0.01900529 -0.024291942 0.0074087284 0.014599382 0.026909623
-0.026408857 0.050045814 0.008878798 -0.029965213 0.017124413 0.033128317 0.03227276 -0.008207545
-0.05024476 0.00093588146 -0.017050896 -0.0204665 -0.019240849 -0.015716128 0.0012934562 -0.026670735
0.016041348 0.040187202 0.01829531 -0.05277857 -0.010868505 -0.011935322 -0.02793493 -0.04962806
0.04713498 0.026848886 0.039808426 -0.024038002 0.06564103 -0.030321555 0.014276867 0.03150594
0.05206704 0.0070532267 0.005865647 0.002186226 -0.0044282167 0.0033001387 0.002216968 -0.03360784
-0.044963468 0.03640352 0.03567977 -0.046555094 0.0004859014 0.02516691 -0.010120096 -0.03984561
0.036943506 0.03967045 -0.02630218 -0.031958662 -0.023873203 0.020593455 0.0016979103 -0.01717987
00000000: 298d ef3c bde2 793d 8e96 e9bb 9eb8 723c
00000010: fd0a a7bc fc54 8ebc 44a7 833d 4734 013c
00000020: fb4b d0bb d1c2 a23c c518 9abc 6135 38bc
00000030: d0ff 283c cef3 2cbd 95cc 56bd 5ef5 1a3d
00000040: 85d0 193d 48e4 dcbc f605 85bd 80ab 84bc
00000050: fa76 d0bc 4fcc 72bd a3fc acbc 2006 183d
00000060: 765c 98bc 9024 f4bc 9c08 bbbc 6cb1 bd3c
00000070: 07d5 213c bbf4 c1bc f381 7abb 7ec7 003d
00000080: 9956 18bd c8e5 0d3c 44fa 343d fb52 dbb9
00000090: 4ab6 4e3d e94a 583d 90c1 89bb 85ae 81bc
000000a0: b56a f43c 1561 66ba e951 1e3d 5ccf 64bc
000000b0: 3497 2bbb abf6 2b3d 569a 373d 2f16 f73c
000000c0: ecf1 02bd 0383 5c3c a43e 683c a098 893c
000000d0: c30a 3abd 1361 5b3d 9016 ce3b e8ad 7e3d
000000e0: b15c 3f3d 23e5 033d 9aa7 cd3b 0f59 feba
000000f0: b869 1fbc 034b ef3c d528 793d 89cd 66bd
00000100: 63d1 523d e564 043d 6190 183d 4b5b f639
00000110: 3ba3 4fbd 45d3 163d 4887 27bd 32d9 ff3b
00000120: 9f22 1dbd e309 213d 827a 223d dbfe 543d
00000130: 7005 4c3b 2329 7abd 2a21 27bd 5e90 09bc
00000140: 377c 33bd e719 e93b 199f 32bc 344b c7ba
00000150: e805 ac3c a645 d2bc c9f2 eebc fde4 013c
00000160: a741 37bd e884 40bd 11cd 353d 79d0 fd3c
00000170: d08e 61bc af1d 823d 4301 05bd b924 a2bc
00000180: d9bc d6bb c104 153d d97e 1a3d f90e 08bd
00000190: bc38 ba3b 7abe 0bbc e971 a2bc bb8e 913c
000001a0: 9cec cbbc 0593 13bd b374 8cbd 3b26 403d
000001b0: b4c0 4bbd 41e1 afbb a903 efbc 7602 cfbc
000001c0: e485 023d dddf 1abd 6d41 bbbc 1fa5 13bc
000001d0: 9a4e 07bd fb48 6cbd 6cc1 4abd 3a20 46bd
000001e0: 1e48 ebba e3cd a1bd b8be 54bd 438e 133c
000001f0: 732f bfbc c6c0 413d b4eb b63c e338 60bd
00000200: c548 2abd 9014 07bd f7af ecbc 9af0 21bd
00000210: fc98 423b 133e b03c 298e 78ba b72c eebc
00000220: 948f cf3c b15e 423d 4b54 5e3d 80a6 92bc
00000230: cc26 5cbc 8001 15bd 8816 19bd e7e9 203a
00000240: 7cb6 633d 5624 ff3c f5ee 43bd 510b cc3a
00000250: 6e83 29bc a78a 9fbc 818f 86bd 14c2 fbbc
00000260: 1af2 c1bb 10fc 45bc 2dec 673d 28f4 83bb
00000270: 7512 27bd f391 223c e047 c5bc 0609 e2bc
00000280: 561c 39bd a342 e3bc 903e efbc bd13 b1bc
00000290: cb2f 363d 12d1 1abd b829 34bd 8d6f 65bd
000002a0: 27a9 32bd 0b81 04bd dfcb 4fbd 8026 103d
000002b0: e49e 2b3d 992f 60bd d920 853d 7f57 223d
000002c0: ccb6 ae3c 6de8 63bd b8a2 f1bc 9a21 413d
000002d0: 3082 f5bc 080f 6dbc 4fba d3bc 6d3f 643d
000002e0: 8491 8abc a897 c1bc ccc3 5e3d d3f7 ef3c
000002f0: 585e 503d 4cd0 863c 74d0 013b ca2f 42bd
00000300: e1f4 363d fbf6 ed3c 14c6 0b3b fbb0 9bbc
00000310: e5ff c6bc ebc4 f23b 3f32 6f3c 9271 dc3c
00000320: 6357 d8bc d7fc 4c3d 6178 113c 9b79 f5bc
00000330: 7f48 8c3c 8fb1 073d 7130 043d f078 06bc
00000340: 73cd 4dbd f155 753a 52ae 8bbc 5da9 a7bc
00000350: fc9e 9dbc 1cbf 80bc 3089 a93a 967c dabc
00000360: 2569 833c 569b 243d 0ce0 953c 582e 58bd
00000370: d011 32bc 5e8c 43bc cbd7 e4bc cb46 4bbd
00000380: 9c10 413d 32f2 db3c 290e 233d 58eb c4bc
00000390: ce6e 863d e964 f8bc 85e9 693c 5f0c 013d
000003a0: 4044 553d c11e e73b 9d34 c03b c946 0f3b
000003b0: 931a 91bb 2447 583b 8d4a 113b 60a8 09bd
000003c0: 9d2b 38bd db1b 153d f324 123d 8eb0 3ebd
000003d0: 95c0 fe39 d62a ce3c c2ce 25bc 2635 23bd
000003e0: 1352 173d 7b7d 223d ab77 d7bc 16e7 02bd
000003f0: bc91 c3bc 9bb3 a83c 6a8c de3a ccbc 8cbc

layer3.0.bias f4 [64]
-0.027314562 0.047779378 -0.03971199 0.020521117 0.0434305 -0.003453257 0.035348676 0.0021711001
0.03601981 -0.039671145 -0.005136546 -0.00756046 0.04247322 0.037882745 0.042624466 0.044044964
-0.004483562 -0.04968459 -0.036637563 -0.037498742 -0.014572192 0.04897092 -0.073244095 0.0057800845
0.01046305 0.011202291 -0.040537577 -0.036837604 -0.062418096 0.022270853 0.0013838912 -0.0103446245
0.013567526 0.030271482 -0.018400285 -0.06831323 0.025385702 0.055425134 0.049641397 -0.024129825
-0.06059311 0.0042092362 0.007540361 -0.018708471 -0.02882243 -0.0036039322 0.022771936 -0.048397798
-0.020260312 0.009475731 -0.038970493 0.009800252 0.009256587 -0.0039932183 0.038059525 -0.005334056
-0.054765474 0.024402704 -0.03790679 -0.03385222 0.03148509 -0.013774752 0.026493754 0.04004326
00000000: cac2 dfbc 4fb4 433d 0aa9 22bd e71b a83c
00000010: 2ee4 313d 0a50 62bb c6c9 103d 0449 0e3b
00000020: 8289 133d 367e 22bd 7950 a8bb bcbd f7bb
00000030: 66f8 2d3d f02a 1b3d fe96 2e3d 7e68 343d
00000040: d8ea 92bb 1282 4bbd 4511 16bd 4898 19bd
00000050: 34c0 6ebc bb95 483d 0001 96bd dd66 bd3b
00000060: 366d 2b3c d089 373c bb0a 26bd 07e3 16bd
00000070: 1eaa 7fbd 5d71 b63c af63 b53a 807c 29bc
00000080: 544a 5e3c e6fb f73c 32bc 96bc cfe7 8bbd
00000090: adf5 cf3c 7705 633d c754 4b3d e9ab c5bc
000000a0: 7b30 78bd a2ed 893b 2215 f73b 8242 99bc
000000b0: 041d ecbc f32f 6cbb 368c ba3c c53c 46bd
000000c0: f4f8 a5bc 1940 1b3c 869f 1fbd 3c91 203c
000000d0: f1a8 173c 8bd9 82bb 4ee4 1b3d 4ec9 aebb
000000e0: c351 60bd 2ee8 c73c 2644 1bbd a0a8 0abd
000000f0: 82f6 003d 7faf 61bc 6e09 d93c 6704 243d

layer3.1.weight f4 [64]
0.9942644 1.0012172 1.0049391 1.0092001 1.0147059 1.0287982 1.0533631 1.0041094
1.0147562 1.0198749 1.0041125 1.0159599 1.0137599 1.0115849 1.0086133 1.0034146
1.0065718 1.0034684 1.0029151 1.0296147 1.0164871 1.0214815 1.0173233 0.9990355
0.99768746 1.0089103 0.999697 1.0370505 1.0351962 1.0389144 1.0060406 1.010966
1.0672028 1.0106546 1.0080694 1.0232033 1.0306295 1.0081421 1.0161614 1.0522375
1.0013859 1.0242707 1.015228 1.0251393 1.0043677 1.0136659 1.0052506 1.0063928
1.0243975 1.007848 1.008093 1.0079837 1.0305902 1.004238 1.0140951 1.0500119
1.007674 1.009498 1.0123315 1.007637 1.0314615 1.0124011 1.0395521 1.0276815
00000000: 1d88 7e3f e327 803f d8a1 803f 782d 813f
00000010: e2e1 813f a9af 833f 9ad4 863f a886 803f
00000020: 88e3 813f 438b 823f c286 803f f90a 823f
00000030: e2c2 813f 9d7b 813f 3e1a 813f e46f 803f
00000040: 58d7 803f a771 803f 865f 803f 6aca 833f
00000050: 401c 823f e8bf 823f a637 823f cac0 7f3f
00000060: 7268 7f3f f923 813f 25ec 7f3f 12be 843f
00000070: 4f81 843f 26fb 843f f0c5 803f 5567 813f
00000080: 1a9a 883f 215d 813f 6b08 813f 53f8 823f
00000090: abeb 833f cd0a 813f 9411 823f b8af 863f
000000a0: 6a2d 803f 4d1b 833f fef2 813f c437 833f
000000b0: 1f8f 803f cebf 813f 0dac 803f 7bd1 803f
000000c0: 751f 833f 2a01 813f 3109 813f 9c05 813f
000000d0: 61ea 833f df8a 803f decd 813f ca66 863f
000000e0: 76fb 803f 3b37 813f 1494 813f 40fa 803f
000000f0: ee06 843f 5c96 813f 0b10 853f 118b 833f

layer3.1.bias f4 [64]
-0.0021933778 -0.0011785344 0.0020776466 -0.002528416 -0.003738676 -0.007159729 -0.0056110257 -0.0009714578
-0.0058690095 -0.003862296 -0.004565541 -0.0035601049 0.0005278098 -0.0009415944 0.0013017784 -0.0010266454
-0.0033159917 -0.0014515617 -0.0018528681 0.0033808087 -0.0015181759 -0.0012535229 -0.010325403 -0.0017208729
-0.0017954205 -0.0008218158 -0.0008584676 -0.0032717488 -0.0027578394 0.0016114999 -0.0050924984 -0.004690851
-0.007502586 -0.0042784903 -0.0017086425 -0.0057220454 0.0012708755 -0.002175713 -0.0048044934 -0.0052416404
-0.0041063493 -0.0055261576 0.0007297333 -0.009412315 -0.0020088393 0.00044777355 -0.0019746097 -0.0017621743
-0.0059201242 -0.0021202764 -0.00057651766 -0.0062549324 -0.0035042877 -0.0021303822 -0.0038766204 0.0022920494
-0.0031279656 -0.0037350736 -0.0031664635 -0.00419267 -0.0030802595 -0.00041200352 -0.0026950568 -0.00824866
00000000: c6be 0fbb 0d79 9aba 2029 083b c8b3 25bb
00000010: 9304 75bb 299c eabb b2dc b7bb 6ea9 7eba
00000020: d250 c0bb 931e 7dbb 899a 95bb a650 69bb
00000030: b75c 0a3a 55d5 76ba 6fa0 aa3a 8190 86ba
00000040: 1c51 59bb 5442 beba f0db f2ba 8f90 5d3b
00000050: 88fd c6ba 404d a4ba e12b 29bc ea8e e1ba
00000060: 5154 ebba 206f 57ba c90a 61ba d66a 56bb
00000070: debc 34bb f738 d33a f9de a6bb b6b5 99bb
00000080: 41d8 f5bb 9432 8cbb 87f4 dfba ff7f bbbb
00000090: 8193 a63a 6896 0ebb 036f 9dbb 11c2 abbb
000000a0: 8e8e 86bb c514 b5bb 934b 3f3a 1c36 1abc
000000b0: bba6 03bb 26c3 ea39 7468 01bb c2f8 e6ba
000000c0: 9afd c1bb 56f4 0abb 7221 17ba 2df6 ccbb
000000d0: 31a8 65bb e29d 0bbb e60e 7ebb 3536 163b
000000e0: 8efe 4cbb 23c8 74bb 7184 4fbb aa62 89bb
000000f0: 2ede 49bb 2d02 d8b9 8d9f 30bb 6325 07bc

layer3.1.running_mean f4 [64]
-0.28106028 -0.011395772 -0.52140856 0.40852872 0.16164505 -0.15205456 0.35266984 0.16559477
-0.047242105 -0.1416906 -0.16942632 -0.33748922 -0.6030712 0.089122556 -0.7969829 -0.5966065
0.3385011 0.2643344 0.06309664 0.12949373 0.29569557 0.21272385 0.098360635 0.25165367
-0.39594877 0.041002396 0.020757796 -0.066202804 -0.0800311 0.26062447 -0.2609667 0.7806657
0.03466243 0.6303988 0.39250347 -0.26066887 -0.16435638 -0.42801085 -0.18171193 -0.058132187
0.94935036 0.33128545 -0.60785884 0.28610277 -0.835619 -0.65640646 0.24421638 0.010375069
0.13814372 0.292576 0.20091678 -0.13407099 -0.16693568 -0.46613675 -0.04966925 -0.051990252
0.27042708 0.1637217 -0.07155868 0.7248629 0.46514955 0.32270324 0.007252871 0.12248989
00000000: 22e7 8fbe 55b5 3abc 087b 05bf ad2a d13e
00000010: 4886 253e 31b4 1bbe 2491 b43e ad91 293e
00000020: f080 41bd 5717 11be 187e 2dbe 63cb acbe
00000030: e062 1abf e385 b63d 1207 4cbf 34bb 18bf
00000040: 0450 ad3e d756 873e d038 813d 019a 043e
00000050: 6965 973e 48d4 593e 4d71 c93d c0d8 803e
00000060: ccb9 cabe 21f2 273d 410c aa3c 5695 87bd
00000070: 58e7 a3bd 9270 853e 6d9d 85be b5d9 473f
00000080: 31fa 0d3d d161 213f 37f6 c83e 6476 85be
00000090: 0a4d 28be 3d24 dbbe b112 3abe 041c 6ebd
000000a0: a008 733f 3f9e a93e a39c 1bbf 107c 923e
000000b0: 20eb 55bf 410a 28bf dc13 7a3e 32fc 293c
000000c0: 8c75 0d3e 85cc 953e 21bd 4d3e e849 09be
000000d0: 30f1 2abe 7aa9 eebe fc71 4bbd bbf3 54bd
000000e0: 6b75 8a3e a9a6 273e 5b8d 92bd 9d90 393f
000000f0: 1528 ee3e 5c39 a53e 7ea9 ed3b fbdb fa3d

layer3.1.running_var f4 [64]
0.21894097 0.18011746 0.17414133 0.17770955 0.2269998 0.14946485 0.32044286 0.15524755
0.16961716 0.1062438 0.39742592 0.17259389 0.379331 0.16686904 0.2516858 0.23010427
0.20419867 0.22937556 0.23326851 0.0969545 0.16169444 0.15367638 0.17024046 0.361928
0.43773562 0.2142065 0.154505 0.08474052 0.12961493 0.13409899 0.19043659 0.30230618
0.13692643 0.31244463 0.2909006 0.18288776 0.12963557 0.3619665 0.22768678 0.19502087
0.4126928 0.14188227 0.34563282 0.26264057 0.25896063 0.28101054 0.15991786 0.14750493
0.13883466 0.1811881 0.28511748 0.22467062 0.12667699 0.2563891 0.13678516 0.12230615
0.19589305 0.23682927 0.13699925 0.34013638 0.18066831 0.17195545 0.24010351 0.19024794
00000000: 1032 603e b670 383e 1b52 323e 7ef9 353e
00000010: a372 683e 500d 193e 1611 a43e 37f9 1e3e
00000020: 1fb0 2d3e 5996 d93d 697b cb3e 74bc 303e
00000030: ac37 c23e b8df 2a3e f6dc 803e 74a0 6b3e
00000040: 7519 513e 6de1 6a3e f1dd 6e3e 1590 c63d
00000050: 3a93 253e 575d 1d3e 8453 2e3e a04e b93e
00000060: e21e e03e f358 5b3e 8f36 1e3e 708c ad3d
00000070: c7b9 043e 3f51 093e cf01 433e e0c7 9a3e
00000080: 7136 0c3e bef8 9f3e ecf0 943e ee46 3b3e
00000090: 30bf 043e ac53 b93e b926 693e 8db3 473e
000000a0: 784c d33e 9649 113e c9f6 b03e d378 863e
000000b0: 7d96 843e 9de0 8f3e 82c1 233e 880b 173e
000000c0: ac2a 0e3e 6089 393e ebfa 913e 0e10 663e
000000d0: 9db7 013e 6f45 833e 6911 0c3e a67b fa3d
000000e0: 3098 483e 5f83 723e 8849 0c3e 5b26 ae3e
000000f0: 1d01 393e 1715 303e b2dd 753e 5bd0 423e

fc.weight f4 [10, 576]
0.010780341 -0.000385737 -0.022102335 0.013257304 0.018299643 -0.03216567 0.012926078 0.033045903
-0.030296478 0.04296843 0.006675717 -0.016633661 0.009607821 0.029139109 -0.0175712 0.029648004
0.007949808 -0.024505474 -0.03371146 -0.049008403 0.030622257 -0.041640505 0.0052538845 -0.001843128
-0.08974922 -0.046523944 -0.010386731 -0.02100439 -0.006466357 -0.026391273 -0.052157912 -0.08074455
-0.058048587 0.019055093 -0.026411695 -0.041157633 -0.004856215 -0.008760918 0.038141806 0.023288954
0.023973871 -0.035234757 0.04032838 -0.036244556 -0.051010497 0.04069432 0.057205852 -0.0016548043
-0.0155467745 0.037658177 0.044710808 0.009567514 -0.026400264 0.017239625 0.01233639 0.036391035
-0.013445306 0.02343868 0.028399672 -0.055541802 -0.03930758 -0.069698654 -0.06883285 -0.004996006
-0.020212637 -0.016972572 -0.004115232 0.014395377 0.0014068421 0.03598926 0.017249744 0.056254216
-0.051956225 -0.02295496 0.037631106 -0.0045474716 0.03135747 0.035746522 0.038355824 0.03697193
0.035499554 -0.032889374 0.04699921 -0.0066533894 0.007215628 0.0013941515 0.022090197 0.032152627
0.08446713 0.079150915 0.025584057 0.017667249 -0.038956083 0.028235298 0.009590792 0.032651685
0.04835528 0.00535514 0.014648516 0.032347284 0.0368482 -0.007618973 0.016962396 0.09782427
0.09293058 -0.023571132 0.008529146 0.07425855 0.0055209356 0.009433057 -0.015967732 -0.026074002
-0.009806596 -0.0016484066 -0.036888618 -0.028733872 -0.0132111665 0.04055255 0.024311045 -0.01591556
-0.030370772 -0.027839744 -0.050834563 0.018991979 -0.004382465 -0.036151696 0.007745601 -0.03689989
-0.01412653 -0.014433698 0.02091674 0.026510924 0.032595683 -0.0050563295 -0.0064746886 0.019775275
-0.016792627 0.02647496 0.039125327 -0.011662536 -0.024411265 0.04459595 -0.047293305 0.012008451
0.030433074 0.0119030485 -0.05023153 0.020958718 -0.0060133026 -0.054575887 0.06426358 0.01763935
-0.06356789 0.026157752 0.04713152 0.05176389 -0.005573729 -0.004217299 0.034405783 -0.039461568
-0.05630506 0.025660656 0.04464543 0.0020507146 -0.015233127 -0.032273065 0.038937405 -0.023758257
-0.0062608663 -0.07800698 0.037674606 0.014027729 0.0011852272 -0.06437256 0.054173872 -0.033235144
-0.0975627 0.06268645 -0.0026229061 -0.10147888 0.037625674 -0.045699682 -0.05926252 -0.031752836
-0.024864158 0.0048291944 -0.02653279 0.03899246 -0.016322639 -0.06444308 -0.00046058858 -0.01706509
-0.0188681 -0.027434431 0.03885337 -0.028326236 0.05324454 0.014137072 0.02262483 0.040834874
-0.00345649 0.03731741 -0.0035248736 -0.020521542 0.087491915 0.056874163 -0.041888673 -0.030253934
-0.03973255 0.0115103405 -0.023993134 0.031355828 0.018468708 0.047028735 0.03912339 -0.015198552
-0.018142117 -0.01253887 0.002709448 -0.025902098 -0.009652427 0.02257885 0.024552574 -0.031824388
-0.0320952 0.0074192546 -0.03958411 -0.052610643 0.030239724 0.024579894 -0.034731764 -0.021890512
-0.03729385 -0.057294123 0.013197992 -0.019259121 -0.0077154194 -0.0065009943 -0.046116356 0.008548451
0.016337285 -0.020370914 -0.022039443 -0.018097281 -0.10901041 -0.08748582 -0.011862926 -0.0056496076
0.013968986 -0.017260604 0.0046989317 0.020459512 -0.026137765 0.032819994 0.028060488 -0.02354133
00000000: 07a0 303c be3c cab9 f50f b5bc 2a35 593c
00000010: 22e9 953c 26c0 03bd e7c7 533c 245b 073d
00000020: 5230 f8bc aaff 2f3d f9bf da3b 5143 88bc
00000030: 1f6a 1d3c 24b5 ee3c 7af1 8fbc 5fe0 f23c
00000040: e93f 023c b4bf c8bc 0715 0abd 09bd 48bd
00000050: 87db fa3c 3c8f 2abd c728 ac3b 1d95 f1ba
00000060: 70ce b7bd e48f 3ebd 1b2d 2abc 6611 acbc
00000070: bce3 d3bb 8332 d8bc 89a3 55bd 665d a5bd
00000080: 5bc4 6dbd 6d19 9c3c 575d d8bc e894 28bd
00000090: e220 9fbb f489 0fbc 953a 1c3d 7ac8 be3c
000000a0: da64 c43c 5252 10bd 5f2f 253d 2c75 14bd
000000b0: 62f0 50bd 16af 263d af50 6a3d 05e6 d8ba
000000c0: e6b7 7ebc 763f 1a3d ae22 373d 10c1 1c3c
000000d0: 5e45 d8bc 1d3a 8d3c 921e 4a3c c40e 153d
000000e0: b349 5cbc 7a02 c03c 6ea6 e83c cd7f 63bd
000000f0: fc00 21bd 2bbe 8ebd 3df8 8cbd 89b5 a3bb
00000100: f994 a5bc 100a 8bbc 11d9 86bb 96da 6b3c
00000110: ca65 b83a 7969 133d 564f 8d3c d26a 663d
00000120: 0dd0 54bd 0a0c bcbc 1323 1a3d f502 95bb
00000130: b170 003d f26a 123d ff1a 1d3d e16f 173d
00000140: fb67 113d 02b7 06bd 3e82 403d ad04 dabb
00000150: 1371 ec3b f6bb b63a 80f6 b43c 79b2 033d
00000160: 1afd ac3d e019 a23d a895 d13c e8ba 903c
00000170: 6a90 1fbd b64d e73c b222 1d3c c6bd 053d
00000180: 3010 463d 2c7a af3b 5400 703c 967e 043d
00000190: 23ee 163d 94a8 f9bb b9f4 8a3c 1758 c83d
000001a0: 6352 be3d 3f18 c1bc d5bd 0b3c de14 983d
000001b0: f7e8 b43b 1c8d 1a3c c3ce 82bc 2599 d5bc
000001c0: d8ab 20bc 590f d8ba 8518 17bd 4c63 ebbc
000001d0: a673 58bc 6e1a 263d f527 c73c 5961 82bc
000001e0: 20cc f8bc 2d10 e4bc e737 50bd 1195 9b3c
000001f0: c89a 8fbb cd13 14bd cfce fd3b 5724 17bd
00000200: f672 67bc 517b 6cbc 9559 ab3c 702d d93c
00000210: 0d83 053d 91af a5bb a029 d4bb c2ff a13c
00000220: b190 89bc 04e2 d83c e141 203d 3914 3fbc
00000230: 22fa c7bc 3eaa 363d a0b6 41bd 18bf 443c
00000240: c84e f93c 0105 433c 94bf 4dbd 9eb1 ab3c
00000250: 3d0b c5bb f78a 5fbd a09c 833d 6680 903c
00000260: e22f 82bd c848 d63c fb0c 413d 5f06 543d
00000270: d4a3 b6bb 4531 8abb 14ed 0c3d 74a2 21bd
00000280: 22a0 66bd 4c36 d23c 20de 363d 4865 063b
00000290: 5e94 79bc c330 04bd d47c 1f3d ada0 c2bc
000002a0: f427 cdbb 20c2 9fbd b050 1a3d 8fd4 653c
000002b0: a059 9b3a c3d5 83bd 6ce5 5d3d 9321 08bd
000002c0: f4ce c7bd c161 803d 10e5 2bbb 29d4 cfbd
000002d0: 611d 1a3d 972f 3bbd 42bd 72bd 430f 02bd
000002e0: ebaf cbbc 383e 9e3b 4b5b d9bc 8fb6 1f3d
000002f0: 0eb7 85bc bcfa 83bd 277b f1b9 16cc 8bbc
00000300: 4691 9abc 2cbe e0bc b624 1f3d 6c0c e8bc
00000310: f216 5a3d 2d9f 673c b557 b93c 7842 273d
00000320: 4886 62bb 24da 183d 9101 67bb cb1c a8bc
00000330: f62e b33d e2f4 683d 7593 2bbd 19d7 f7bc
00000340: 99be 22bd de95 3c3c 408d c4bc f86e 003d
00000350: b04b 973c 34a1 403d d93f 203d 5903 79bc
00000360: c79e 94bc d56f 4dbc ff90 313b a330 d4bc
00000370: 3725 1ebc 48f7 b83c 7b22 c93c 4a5a 02bd
00000380: 4276 03bd 381d f33b f322 22bd 427e 57bd
00000390: 4cb9 f73c c65b c93c e542 0ebd bb53 b3bc
000003a0: 70c1 18bd 3ead 6abd 643c 583c 4ec5 9dbc
000003b0: a1d1 fcbb 4b06 d5bb 81e4 3cbd cd0e 0c3c
000003c0: c5d5 853c e7e0 a6bc 108c b4bc c040 94bc
000003d0: da40 dfbd c42b b3bd b85c 42bc 5820 b9bb
000003e0: 2dde 643c 1c66 8dbc 7ff9 993b b59a a73c
000003f0: de1e d6bc 426e 063d 1cdf e53c bfd9 c0bc

fc.bias f4 [10]
-0.011137266 -0.016539702 -0.0123373205 0.041314334 0.03671554 0.04328961 -0.026531123 -0.039643154
-0.00030565733 0.038059093
00000000: 1479 36bc 457e 87bc 7922 4abc 3839 293d
00000010: 0963 163d 7250 313d cc57 d9bc dc60 22bd
00000020: a240 a0b9 dae3 1b3d
